checkpoint.pt (torch_old, 34802 bytes, 8 tensors)

internal.FC1.weight f4 [120, 2]
00000000: 00c4 f6bd 292e 043f 1298 c93e 30ed 86be
00000010: 6129 213e 921c 8a3f a5f0 f33e 5101 813f
00000020: 6ddd 2ebf 1890 973d 2914 d1be 4675 67be
00000030: 9e1f 91be 6fb5 2cbf 4186 1b3e 04ab c8be
00000040: d583 b33d 2521 07c0 338e 993e 985e 183d
00000050: 8bdd b0bf 60b8 273d b4fb 4e3f d112 063f
00000060: 39a6 96bf 7cc6 49bd eb50 0abf 6a63 b3be
00000070: 3cc1 81bf 80a0 eb3e 541d 69be f82d 1bc0
00000080: cfe9 323e 6c91 333d df94 edbe bcdb 14bf
00000090: 1ef7 d33e 3a67 bbbe 3a0b 61be 5576 7abf
000000a0: 1483 a2bf ac18 d03a 6f36 363f 1a93 b83d
000000b0: 5d14 bfbe 8efa 05bf f3ae 1f3f 9234 ad3d
000000c0: 3e5e 28be 6cf3 eebe 283a 75be c8ca 923e
000000d0: db4a 25be b74d a53c ab02 c33d 5fe0 393e
000000e0: 1a63 06be f291 80bf 3f81 58bf a172 25be
000000f0: 3681 12be cb5d dbbe aa52 7cbe b02e a3be
00000100: 70dd 87bf f297 2ebf 5e7c 5f3e 431f da3e
00000110: 7c36 82be bde0 663f bf94 e1be 4e8d 36bf
00000120: 7072 a53e b1f4 f33c 1a8b f6be 84bc 26bf
00000130: 5487 afbf 9e45 00bd 361d c2be 94e1 12bf
00000140: 5703 8cbe 3cf0 293e 801a 973d a8fa 873e
00000150: 9bd9 8abf 2e74 de3e 40d1 ba3d 4139 5c3f
00000160: 65f2 cebe 9671 943e 737e 95bf d215 0fbe
00000170: 6ac1 473c ded2 8d3e 80e4 f7bd 8090 6ebc
00000180: 0eff 24be 1822 103d 78a1 0d3d f2c9 883e
00000190: e502 b13d 4fea 843c ef24 db3e 7557 8e3f
000001a0: 3ba8 283d 9c73 543f 3d9e 393f db12 b4be
000001b0: 69c0 f63e ffa1 043e 7030 533e c897 31be
000001c0: 5992 b93e d173 8e3e 40ab 2abe 47b5 d7be
000001d0: 7883 c63e 760d 14bd 0525 abbe 8322 17bf
000001e0: 1eae 67bc 28ab 223e ffa0 36bd 00a1 19bf
000001f0: f04a 0ebd f05f 0cbd 592b 14be 9689 44bf
00000200: dc74 76be b8e5 da3d b6c4 4cbf c39b 133f
00000210: f19b 69bf 01d6 53be cf02 9dbe 38e5 27be
00000220: 2029 24bc c64d 263f 3068 013e 6a17 f6be
00000230: 8848 0f3e 9495 4b3c 883a 08bf 6218 55be
00000240: 8c16 a2bc 0bf3 3cbf b8b5 b7be 8d75 ff3e
00000250: 42c6 d23e 60f5 e5bd 47c3 ce3e dd11 1d3d
00000260: 5255 23bf 074c d8be f198 50bf ae10 163e
00000270: eeca 02bf b2aa 613e ee7c cdbd f1ca 20be
00000280: 8274 48be d8ae f8be 9070 00bf 72b9 23bf
00000290: e0d3 c5be 7f24 553d 9088 45bd eb6b 22bf
000002a0: 4180 17bf 0749 41bf 3714 cdbe 4046 27be
000002b0: 5bb4 483f 994c 443f 3159 29bf fbc5 c6be
000002c0: a2a0 10be 6fdc 8ebe ac33 3cbd e626 10be
000002d0: 7611 a13e 4c75 f53d 7904 1bbf 2015 36bd
000002e0: dc4b 2f3d 1a98 30bd 9cc7 23be 85c4 1c3f
000002f0: 7285 433f 80fd 91bd 7bac 8dbf 4c4e b7bf
00000300: d31f 11be cc6f a23c 88a3 8b3e 0d35 e2be
00000310: a39b 03bf 8c0b 5cbe 2754 1dbd 16eb a93d
00000320: 0823 4dbe 04c9 43be 830d 4d3e c8da b63e
00000330: 33ef a8bc 098f 25b8 a759 c3be 8b8f 0abf
00000340: c7b1 b7bf 9c14 08bd f509 90bf 1af1 753b
00000350: 86e2 c73e a5e9 2dbf 3482 453f 39f8 28c0
00000360: 6adb a8be c6c0 f13e e86e 823e b2c5 91be
00000370: b6bf 96be 329a be3e 948d 09be 17f4 383e
00000380: cd60 a3be 63f8 f43e eefa 723e 61c0 b2be
00000390: d0af 083f 2a20 133f 5d46 3abd c569 28bf
000003a0: 586b cebf 451e 40be b694 cabe 2522 f73e
000003b0: 7206 90be 794e 093d ff2f eebe e26a 293f
-0.12049103 0.51632935 0.39373833 -0.26352835 0.15738441 1.0789969 0.47644535 1.0078527
-0.6830662 0.074005306 -0.40835693 -0.2260333 -0.28344434 -0.67464346 0.15187933 -0.39192975
0.08765379 -2.111398 0.29991302 0.037199587 -1.381761 0.040947318 0.8085282 0.5237246
-1.1769477 -0.049261555 -0.5402972 -0.35036784 -1.0137095 0.4602089 -0.22765094 -2.4246807
0.17472003 0.043839857 -0.46402642 -0.5814779 0.41399473 -0.36602193 -0.21976939 -0.9783681
-1.2696252 0.0015876493 0.7117681 0.090124324 -0.37320223 -0.5233544 0.62376326 0.084572926
-0.164422 -0.4667009 -0.23947966 0.28670335 -0.16141836 0.020178659 0.09521993 0.18151997
-0.13123742 -1.0044539 -0.84572214 -0.16157009 -0.14307103 -0.42844996 -0.24640909 -0.31871557
-1.0614452 -0.682006 0.21824786 0.42601976 -0.25432193 0.90186673 -0.44058797 -0.71309364
0.3231387 0.029779764 -0.48153 -0.651314 -1.3713174 -0.031316392 -0.3791291 -0.57375455
-0.27346298 0.16595548 0.07378101 0.26558423 -1.0847658 0.43448013 0.091219425 0.8602486
-0.40419307 0.2899291 -1.1679214 -0.13973168 0.01219211 0.2769994 -0.1210413 -0.014560819
-0.1611292 0.035188764 0.034577817 0.26716572 0.0864313 0.016225008 0.42801616 1.112044
0.041176062 0.82988906 0.7250708 -0.35170636 0.48193672 0.12952422 0.20623946 -0.17343056
0.36244467 0.27822736 -0.16666889 -0.4213049 0.38772178 -0.03614565 -0.3342668 -0.59037036
-0.014140634 0.15885603 -0.04458713 -0.6001129 -0.034739435 -0.03427118 -0.14469661 -0.7677244
-0.24068016 0.106883466 -0.7998766 0.5765955 -0.9125357 -0.20687105 -0.30666205 -0.16396034
-0.010019571 0.6496242 0.126374 -0.4806474 0.13992512 0.012425799 -0.5321431 -0.20810083
-0.019786142 -0.73808354 -0.35880828 0.49894372 0.41166884 -0.11228442 0.4038336 0.038347114
-0.63802063 -0.42245504 -0.8148337 0.146548 -0.51090896 0.22037771 -0.10033594 -0.15702416
-0.19575694 -0.48570895 -0.50171757 -0.6395484 -0.3863821 0.05203676 -0.04822594 -0.6344592
-0.59180075 -0.75502056 -0.40054485 -0.16335392 0.784002 0.7667938 -0.6615172 -0.38822922
-0.14123777 -0.27902552 -0.045947716 -0.14077339 0.31458634 0.11985263 -0.605537 -0.04445374
0.042796955 -0.043113805 -0.15994114 0.61237365 0.76375496 -0.071284294 -1.1068262 -1.4320769
-0.14172296 0.0198287 0.27273202 -0.441811 -0.5140936 -0.2148878 -0.038410332 0.08296792
-0.20032895 -0.1911965 0.20024686 0.35713792 -0.020621872 -3.9472277e-05 -0.38154337 -0.5412528
-1.4351128 -0.03322278 -1.1253039 0.003752774 0.3904001 -0.6793464 0.771518 -2.6401503
-0.329799 0.47217387 0.2547524 -0.28471142 -0.2944314 0.37227017 -0.13432914 0.18061863
-0.3190979 0.47845754 0.23728535 -0.34912398 0.5339327 0.57470953 -0.04547726 -0.6578639
-1.6126509 -0.18761547 -0.39566582 0.48268238 -0.28129917 0.033522103 -0.46520993 0.66178715

internal.FC1.bias f4 [120]
00000000: 7ae0 05bf 5432 00be 6988 4cbf 58a8 98bf
00000010: e459 49be 3736 0abf 70a5 973e 34b7 a03e
00000020: e06d 1d3f 7b9f 73bd e15a db3e 37be 20bf
00000030: 7daa 153f 708c b1be 863b 9a3d 962d 913e
00000040: 5075 75bd 849f 47be 7ae2 06bf c94e 053f
00000050: a2fc e53e 8f23 b1be a69d f3be 64bf adbe
00000060: c91b 293e b84a f5be 8fc7 393d 8464 d5be
00000070: a97a ca3e 9f94 043f 0b6c 133b 0f32 c8be
00000080: afc2 383f b848 073e 0c67 0abf f125 39bb
00000090: 0888 02bf f377 8cbe 4c08 033f 4ef5 1cbf
000000a0: 4677 90be a312 cabe bf4f e83e b997 1abf
000000b0: b477 9bbe 3e7a 3e3f 7dd0 8c3d 00c8 37bb
000000c0: ac42 c13d c4f7 5d3d c6df 703e 6ca5 85bf
000000d0: 89b9 0cbf d5de d2bd fd05 aabe b507 a5be
000000e0: 4a90 aebd 7edd 183f 3d77 1c3e ef3a b7be
000000f0: 6d84 25bd a397 923e 4826 2bbe c382 243f
00000100: 8340 e1be 154d b93e 3198 143f 44f8 ebbe
00000110: 2fb6 24bf a156 89be 2156 b13d e1bd 0cbf
00000120: 9431 9f3e 7995 c3be e42b 25bf 579a 09bf
00000130: 5063 f4bd 019e f33e 7361 463e 9fd4 593e
00000140: 4907 423e 1c30 06be eb25 7f3e 21dc bcbe
00000150: ddb7 d03e 4006 3abe 1604 3abf 71be c13e
00000160: 6b81 cd3e 79f7 803e 20f8 82be 510f e9be
00000170: b68d 9bbc a80b 75be 0de1 fabd 64e0 4c3f
00000180: f14a b03e 94fc e43e 2c31 6ebe 4b53 3e3e
00000190: 4ecf 5cbe c29e 7e3e 946c de3e 0039 21be
000001a0: a733 093f 7cfb 063f 1906 0ebf 9da1 2e3e
000001b0: b3c6 07bf e778 ad3e 4c49 ad3e 01a3 553e
000001c0: 3419 bcbe cc82 dd3e 6723 02bf 2b26 933e
000001d0: 2c9d 823f 1a8c a4be 19f9 af3e 8d65 03bf
-0.5229565 -0.12519199 -0.79895645 -1.1926374 -0.19663197 -0.53988975 0.29618406 0.31389773
0.6149578 -0.059478264 0.42842773 -0.62790245 0.5846327 -0.34677458 0.075308844 0.28355092
-0.05992633 -0.19494444 -0.52689326 0.5207334 0.44919306 -0.34597442 -0.47581214 -0.33935082
0.16514505 -0.47908568 0.04535633 -0.4167825 0.39546707 0.5178928 0.0022494819 -0.39100692
0.72172064 0.13211334 -0.5406349 -0.0028251375 -0.5098882 -0.27435264 0.51184535 -0.61311805
-0.28215998 -0.39467344 0.4537334 -0.6038776 -0.30364764 0.74405277 0.068757035 -0.0028042793
0.09436545 0.054191366 0.23522863 -1.0441108 -0.54970604 -0.10296408 -0.33207694 -0.32232442
-0.08523615 0.5971297 0.15279861 -0.3578715 -0.040409494 0.28631315 -0.16713822 0.64262027
-0.4399453 0.3619162 0.58044726 -0.4608785 -0.6434049 -0.26823905 0.08659006 -0.5497723
0.31092513 -0.38199976 -0.64520097 -0.5375113 -0.11933005 0.47581485 0.19373111 0.21272515
0.18948092 -0.1310429 0.24916808 -0.36886695 0.40765277 -0.18166447 -0.72662485 0.37840608
0.401378 0.25188807 -0.2557993 -0.45519498 -0.018988471 -0.23930228 -0.12249956 0.8002989
0.34432176 0.44723952 -0.23260945 0.18586461 -0.21563455 0.24865249 0.43442214 -0.157444
0.5359444 0.52727485 -0.55478054 0.17053838 -0.53037566 0.33881304 0.33844984 0.20862962
-0.36737978 0.43263853 -0.5083527 0.28740057 1.0204215 -0.3213814 0.34369734 -0.5132683

internal.FC2.weight f4 [60, 120]
00000000: a883 82bd 00ef ffbb 6ff3 cdbd 6862 f6bc
00000010: 188f a53c aeb6 b53d bde3 3b3b 786e 63bd
00000020: f0d6 e0bd 023c cabd 0817 2cba 70e3 a03d
00000030: 1792 adbc 8c05 993d 7cb1 bcbd 12e5 2f3b
00000040: b2d2 4fbb 2bdf 44bd a23d f4bc 2bde aabc
00000050: eefb dbbd aa23 b73d 5801 b5bd cc1f 9c3d
00000060: 1e5e dd3b 1125 39bd 1c4b aabd f85b b93c
00000070: 4f9f 583c b235 a33b eedf f1bd de01 913d
00000080: e8cc 39bd 0570 c9bd e032 2ebc 8f07 a13d
00000090: e252 9d3d feea 5abd ce69 a5bd 309e b8bc
000000a0: cc21 523d a600 7ebd b275 1bbd f4bd 8ebd
000000b0: bb87 21bd 3a61 a8bc e0d7 f8bc 11da aebd
000000c0: 4e51 23bd d4a0 99bd 35ad 9fbd f334 b1bd
000000d0: 90dc 823c 603d 463b 38ea e2bc f0bc 3c3c
000000e0: 3dc5 f6bd e7b2 30bd 398b 083a 98d2 933d
000000f0: d136 23bd 3105 0abe e876 b83d 79cc f23c
00000100: e0c7 16bc 78a3 c3bd c8e5 2bbb 696d 15bd
00000110: e0e8 31bd 8c41 5a3d 6502 bf3c 5911 aebd
00000120: d5f4 a2bd 7b16 bbbd fcb6 1a3d 547d 87bd
00000130: 58d8 d5bc d3c4 05be b10d 04bc a688 59bd
00000140: 7162 edbc b00a 86bd bceb 3d3c a86e 6abc
00000150: c5c0 15be acc6 3e3d 580a babc df07 49bd
00000160: aad3 15be 3701 87bd e0d6 2b3b b45c ad3c
00000170: 6498 e7bd 0039 3fbc d49c 82bd 809c 193b
00000180: d1ab 08be a789 87bd 0cb3 a33d 7a39 84bd
00000190: 2142 90bd b661 06be 019f 15be a8ab 3d3d
000001a0: 57f2 473c 2870 b0bd 3fb9 a1bd 680e 30bc
000001b0: 7893 703d 65f2 d7bd aaf8 0abc c1d0 03be
000001c0: e7c0 99bc 29fe 29bd 0c4e 483d b351 0ebd
000001d0: e0b5 f5bd 57ed 86bd d61c 773c 0cca 383d
000001e0: 902b ed3b d521 b83d f0d5 10c1 f009 51c0
000001f0: 1275 f6bc 9072 b93b f69c 293e 858b 263e
00000200: 8e5f 113e 4726 6c3e 763a 44be fa80 203e
00000210: 4ab0 e8bf 544d 8c3d 7aaf 2fbf d7e1 00bf
00000220: 05ee fb3d 6c19 923c 3049 3abd 0c94 b23d
00000230: c0b1 713d 46f3 563e 5adc 973d 4a4d 443e
00000240: 5eac 263e 226d 17bd 1347 fcbd a87b aabd
00000250: e58f 343e b4d0 d0bf 30cd f33d 3b01 5ebd
00000260: 515d 87bf 598c 243e a44d 7bbf a43e 633e
00000270: 0639 9d3d 2cbd 063d 9eb3 0b3d b7ef 96bd
00000280: a861 f93c f492 c93c b8c5 abc0 84d8 09c1
00000290: 6983 0abd d455 48c0 9755 5c3c bfac acbd
000002a0: 0066 fd3c 5683 87bd 1493 9a3e 14ff 94c0
000002b0: 1e4e 02c1 687d 2c3e cffb 843e 88c8 863c
000002c0: 57ad 013e 2b1b 793e 6fb1 753e 6433 89bd
000002d0: 3d87 c9bc 086b 0b3e c816 933c 0ed2 873e
000002e0: b820 a8bc dd8e 36bf af1e c4bf 86df 8e3d
000002f0: b409 e4c0 e06e e1bb dbf9 943d fa0b 973d
00000300: 7d10 af3e d617 1bbf 15c9 90bd b041 30bc
00000310: c28a 803d 2827 1cc0 0a8d 91bf fbdd 893d
00000320: eb46 493e 30e8 a43b fbd0 d8bd 30fd e4bc
00000330: fec9 86be b4d4 1c3d 593a 6e3e ca2e 30bf
00000340: 19f7 3d3d c60a 873d c169 6a3e e075 e03c
00000350: ce1c dd3d 2505 95be afb3 993e d92d 86bf
00000360: c67e d73d 456d 273e ac4a d93c aeaa ce3d
00000370: 2887 173d d1f4 993d f03d c33d 02db a23d
00000380: 1ce8 c2bd e5cb 09c0 4045 d5ba 96b7 373e
00000390: 8d28 a3bd 83d7 6a3e 0b96 b83d c07d 12bd
000003a0: 2e3f 10bf d5aa a53e 6018 013f 8701 983e
000003b0: 3ec9 50c0 fe88 09bf f6d5 1ebe 3c1d 31bf
000003c0: d247 febc e8fb 433e ab66 c1be 820d b9bb
000003d0: 98ba 0cbc b40d 4a3d 8c5e f53e d098 11be
000003e0: 00b0 c53f 163d b6bd 53b9 0c3f 6a7d e4bd
000003f0: 92a7 ce3e 4000 78bc 9b27 1a3e 09c7 943f
-0.06372768 -0.0078104734 -0.10056197 -0.03007622 0.020209834 0.08872734 0.0028669678 -0.055525273
-0.10978496 -0.09874727 -0.0006564711 0.0785588 -0.021187825 0.07471761 -0.0921354 0.0026839417
-0.0031711278 -0.048064392 -0.029814545 -0.020857891 -0.10741411 0.08942349 -0.08838147 0.07623252
0.0067556044 -0.045201365 -0.08315107 0.022626862 0.013221576 0.004980766 -0.11810289 0.07080434
-0.04536143 -0.09835819 -0.010632247 0.0786277 0.07681824 -0.053446762 -0.08076821 -0.022536367
0.051301762 -0.062012337 -0.03795404 -0.069698244 -0.039436083 -0.020554174 -0.030376375 -0.085376866
-0.03987246 -0.07501379 -0.077967085 -0.086526774 0.015974313 0.0030248985 -0.027699575 0.011519656
-0.12049339 -0.043139365 0.0005208734 0.07217902 -0.0398472 -0.13478543 0.090070546 0.029638516
-0.009202927 -0.095526636 -0.002622949 -0.036481295 -0.043434978 0.053285167 0.023316571 -0.084994026
-0.07956854 -0.09135147 0.037772164 -0.06615701 -0.026104137 -0.13063364 -0.008059905 -0.053108834
-0.028977605 -0.06545007 0.011591848 -0.014308609 -0.14624317 0.046576187 -0.02271001 -0.049079772
-0.14631525 -0.065920286 0.0026220605 0.021162368 -0.11308363 -0.011671305 -0.06377569 0.0023439229
-0.13346793 -0.06618052 0.07993135 -0.06456275 -0.07043863 -0.13123211 -0.14611436 0.046306282
0.012203774 -0.08615142 -0.07896661 -0.010745622 0.058734387 -0.1054428 -0.008482138 -0.12872602
-0.01876874 -0.04150215 0.048902556 -0.034745883 -0.119975805 -0.06588238 0.015082559 0.045114562
0.007237859 0.08990828 -9.052231 -3.2662315 -0.03008512 0.005659409 0.16563782 0.1626416
0.14196607 0.23061477 -0.19162926 0.156742 -1.8178799 0.06850687 -0.6862713 -0.50344604
0.12301258 0.017834388 -0.045479953 0.08719644 0.059007406 0.20991239 0.074150756 0.19170108
0.1627669 -0.03696931 -0.12318244 -0.08324367 0.17633016 -1.6313691 0.11904371 -0.054200392
-1.0575353 0.16069163 -0.98165345 0.22191864 0.07676892 0.032895252 0.034106843 -0.07369941
0.030442074 0.024606206 -5.3678856 -8.61536 -0.03381673 -3.1302385 0.013448141 -0.08431386
0.030932426 -0.06616847 0.30190337 -4.6561375 -8.144072 0.16844714 0.25973365 0.016453043
0.1266378 0.2432677 0.23993467 -0.06699255 -0.02460062 0.13615048 0.017955199 0.26527447
-0.020523414 -0.7131174 -1.5321864 0.069762275 -7.1261845 -0.0068796724 0.07274219 0.07375331
0.34192267 -0.60583246 -0.07069603 -0.010757849 0.06276466 -2.43989 -1.1371167 0.067317925
0.1965596 0.0050325617 -0.10586735 -0.02795276 -0.26325983 0.038288787 0.23264445 -0.68821394
0.04637823 0.06593852 0.22891904 0.027399957 0.1079651 -0.29105487 0.300199 -1.0482742
0.10522227 0.16350277 0.026524864 0.10091148 0.03699413 0.07517398 0.09533298 0.07951929
-0.095169276 -2.1530697 -0.0016271248 0.17941126 -0.07966719 0.22933774 0.090129934 -0.035764456
-0.56346405 0.32356897 0.5042782 0.29688665 -3.2622828 -0.5372466 -0.15511307 -0.69185233
-0.031040106 0.19139063 -0.37773642 -0.005647362 -0.008589409 0.049329475 0.47923696 -0.1421845
1.5444336 -0.0889837 0.5497028 -0.11156733 0.4036222 -0.015136778 0.15054171 1.1623241

internal.FC2.bias f4 [60]
00000000: 61c0 66bb 39e2 633e 1fc7 8abe f655 3b3e
00000010: b55d d83e f414 90bd e478 80be 8580 aa3e
00000020: d970 c33c 6cbc 3ebe cc3c d6bd d8fb 393e
00000030: a358 52be 7b0c 943d 7b54 b13a 20ac fe3c
00000040: 751a 1f3e 69d6 b8bd d780 57bd c7e6 87be
00000050: 544e 923e 90c3 d33d 4012 24bb 8b98 063e
00000060: b188 40bd 941d b2bd 96b4 183e d092 04be
00000070: d41e b13e 0eee 313e 48dd 933d 17d7 7ebe
00000080: 3b8d 53bd b666 acbd 6424 d6bd 5180 b4bd
00000090: 9148 ddbd 80bb 18be cb34 023e f85b 29be
000000a0: 9ae3 843e 8d3e 9c3d 46fa 68bd c63b 563e
000000b0: f30f f3bc a613 77bd 5a23 15bc 4720 ec3b
000000c0: 200b fdbd 3f26 73bd a27e e03d 5fd8 c4bb
000000d0: 0ade 78bd 245f a03c 3c55 29be 90fe 783d
000000e0: d01c d2be 1c0d b53d 524f 48bd d515 edbd
-0.0035209882 0.22254266 -0.27105042 0.1829451 0.42258993 -0.070352465 -0.25092232 0.33301178
0.02385752 -0.18626565 -0.10460815 0.18162477 -0.20541625 0.07228943 0.0013529205 0.031087935
0.15537436 -0.090252705 -0.052613106 -0.26543257 0.28575385 0.10340035 -0.0025035292 0.13144128
-0.04700536 -0.08697048 0.14912638 -0.1294663 0.34593832 0.17375967 0.072199404 -0.24886738
-0.05164836 -0.08418028 -0.1045616 -0.08813537 -0.108048566 -0.14915276 0.12715451 -0.1653899
0.25954896 0.07629118 -0.056879304 0.2092124 -0.029670691 -0.060321473 -0.009102667 0.007205996
-0.123556376 -0.059362646 0.10961653 -0.0060072388 -0.060758628 0.019576617 -0.1653642 0.060789645
-0.41037607 0.08840391 -0.04890377 -0.1157643

internal.FC3.weight f4 [10, 60]
00000000: f44a 323e e6e9 a1bc 66fc e4bb d3f8 c1bd
00000010: 9945 36bd 8c7d 4d3d ad81 4bbd 9894 683d
00000020: 832b b6bc 90b4 263d 479c dbbc c32b 40be
00000030: cb0a 40be 7889 68bd 82e9 5e3d 7e0c 5bbd
00000040: 7bbd 2cbe 8474 283d c030 b63d 383c 65bc
00000050: 7ead c4bd bb82 1d3d 99f5 f7bd 006c 87b9
00000060: 1fc5 dcbd 7b3a 8c3a 1c85 26be c8f9 ba3c
00000070: dd2e a7bd 0a5b d2bd 04b3 a0bd 6a4e 5dbc
00000080: aeb8 1bbb 1a71 d5bd 8c54 573d 58b8 dbbd
00000090: 7874 2c3d a872 9b3c 30dd cabc 0038 4dba
000000a0: e807 683c 44ff 5bbd 007c 77bb 36df 2fbe
000000b0: a816 053d 427b c4bd 6902 0cbe e7f1 6cbd
000000c0: d6c1 aabd 5c37 e4bb d0ba 87bd f34e 53bc
000000d0: 8ef5 833d efec 09be aeec c83d 458d bbbd
000000e0: 64a0 da3d b898 c1bd 119d 90bc ded1 c6bc
000000f0: a5e4 363e 1625 1ebd c591 0cbe 27c0 26be
00000100: 82aa 36be 6063 a23c b43d 27be 930c d5bd
00000110: bc0f ecbd 08ff 0c3d 0ec7 49bd 4d07 debd
00000120: 62fb 75bd 3c08 0ebe 5563 ff3c 4cc4 a7bd
00000130: 37c4 373d fe22 86bd 5086 9fbc 27c0 64bd
00000140: 4891 9dbc 3869 903d dcb2 a03d b80d 67bd
00000150: b878 27bd e232 6e3d 0519 1cbe f440 76bb
00000160: cd08 ebbd 858c d9bd 5010 ba3c 7445 b83c
00000170: 293a e7bc 95b5 9d3c 623f f53d 4233 2fbe
00000180: 67db 3ebe 907a 9fbb 3286 23bd 4809 e0bd
00000190: bad8 283d 85b3 e0bd 4bef 233e a0a7 073d
000001a0: aec0 143e 7071 8d3d b613 8b3d 82a9 bd3c
000001b0: 9c5b 3dbe 847e 213d 4cf4 8bbd 3789 0ebe
000001c0: 00d3 0a3c f7d0 723d 5667 9fbd 6472 83bc
000001d0: bc5e 94bd a07e c93d cf24 cdba 2a2b 1b3c
000001e0: e6fb 2f3c 50b0 ea3e ffde bc3d 23df b13e
000001f0: 5bb3 123e 389d b13c e18d 83be 928f 08be
00000200: cd52 7a3d c7c6 c93d ec92 f33c 9ca8 903e
00000210: 2c97 b83e e6b6 b63e 96b8 80bc f2e4 ee3d
00000220: 78ae 843e 7c82 e83c 3ce9 1b3d 77f7 b43e
00000230: 7873 183e 8ed8 903e bed4 d23d 4c3a 413e
00000240: 4bcd 45bd 901a 0b3d c213 103a 1792 26be
00000250: b23f a5bc afc9 afbd fcd0 bdbd 963e 143d
00000260: b515 8f3e eb5b 513d 9b84 973d 9eb1 e03d
00000270: e0c5 b9bc 0555 57bc 30a2 fbbd 3404 7cbd
00000280: fc5d b1bd 748b 5f3e 6bcf f9bc 2852 16bf
00000290: 3d12 5f3c ee68 85bd 7db2 f03c 6cf1 253e
000002a0: dd1d 023c 35ae 283e 2e0f fa3b ba98 653d
000002b0: 4869 9b3c 4c0f c6bd 456e 16be 9a97 3ebd
000002c0: 5a6d 1d3e fee8 193f bf7f 1bbe 38fd f63c
000002d0: 10f5 94bd 3836 b0bc d729 07be 2a36 6cbe
000002e0: 4cf9 eebc c8f7 9e3c 3489 afbd 23cf 99bd
000002f0: 1e76 f23d 386b 4c3d f0f7 883d 1ba1 88be
00000300: 67e8 47be 8666 8ebe 4e26 89be 0071 a7ba
00000310: 3594 91be f8a2 c43c a8a7 d6bd e529 54be
00000320: 3808 713d 2e9d a3be caf7 b83d cab9 cfbd
00000330: 9a42 b33d 1862 f3bd dbb5 78be 44d9 0d3d
00000340: 1a4f 9a3d 7db0 ed3d 58b3 173d 8f55 9fbd
00000350: 3f60 4ebe 30de 4d3d 7baa 02be 3011 dcbc
00000360: b511 b2bd 4a6e a23d a3a6 4abe 1c1f 433d
00000370: 9a87 8abd c88c 91be b849 b1bd 3c19 8fbd
00000380: 67fd f3bd 2c36 43bd f8ef a53c 2461 4c3d
00000390: 20d8 163d ea7f a03d 87f6 94be 4446 b6bd
000003a0: c8a5 e13d 8c2c 4c3d b48c 423d ad99 dbbd
000003b0: e8c4 f53d ee2e a5be e6c2 d23d 4c7c d1bd
000003c0: 5860 c9bc 8048 573d 1f1a bbbd a38a 8f3e
000003d0: 0643 6e3e 4ab4 a03d df9e 92be f13e a13d
000003e0: d6e6 92bd fa01 c33d 9cf4 44bd 4615 543e
000003f0: bb04 423e 393a d6be 4630 b43d a457 47bd
0.17411405 -0.019764852 -0.006988096 -0.094712876 -0.044499967 0.05016856 -0.049684215 0.056782335
-0.022237545 0.04069954 -0.026807917 -0.18766694 -0.18754117 -0.056771725 0.05442191 -0.05347871
-0.16869156 0.041126743 0.08896017 -0.013991408 -0.096034035 0.038454752 -0.12107391 -0.00025829673
-0.10779785 0.0010698581 -0.16261715 0.022824183 -0.08163235 -0.102712706 -0.078466445 -0.013507465
-0.00237612 -0.10421963 0.052570865 -0.1072852 0.04210326 0.01897557 -0.024763674 -0.0007828474
0.014162041 -0.053710237 -0.0037763119 -0.17174992 0.03249231 -0.09593822 -0.13672794 -0.057847884
-0.083377525 -0.006964607 -0.066274285 -0.012897241 0.0644332 -0.13469289 0.09810768 -0.091578044
0.10675123 -0.09452957 -0.01765302 -0.024269994 0.17860658 -0.038609587 -0.13727482 -0.16284238
-0.17838481 0.019822776 -0.16332132 -0.10402789 -0.115264386 0.034422904 -0.0492621 -0.10841236
-0.06005419 -0.13870329 0.031175295 -0.081917375 0.04486486 -0.06549643 -0.019473225 -0.055847313
-0.019234315 0.07051319 0.07846615 -0.056409568 -0.04088661 0.058153994 -0.15243919 -0.0037575336
-0.11476288 -0.10622505 0.022712857 0.022494055 -0.028225975 0.019251624 0.1197498 -0.17109397
-0.18638383 -0.0048669055 -0.0399229 -0.1093927 0.04122231 -0.10971741 0.16009252 0.033118844
0.14526626 0.06906402 0.06790869 0.023152117 -0.18491977 0.039427295 -0.06833705 -0.13919531
0.008473158 0.059281316 -0.07783382 -0.016045757 -0.07244632 0.09838605 -0.0015651229 0.00947074
0.01074121 0.4583764 0.09222221 0.34740552 0.14326231 0.021681413 -0.25694183 -0.13336018
0.06111412 0.09852367 0.029733144 0.2825364 0.36052835 0.35686415 -0.015713017 0.116647616
0.2591436 0.028382532 0.038064227 0.3534505 0.14887798 0.28290218 0.102944836 0.18869895
-0.048291486 0.03396088 0.0005496108 -0.16266666 -0.020171974 -0.0858339 -0.09268376 0.0361925
0.2794625 0.05111305 0.07398339 0.10971378 -0.022677362 -0.013142829 -0.12286794 -0.061527446
-0.08660504 0.21830541 -0.030494412 -0.5871911 0.013615188 -0.065141544 0.029381985 0.16205376
0.00794169 0.16472705 0.007631204 0.056053855 0.0189711 -0.096708864 -0.14690502 -0.046531297
0.15373746 0.6012114 -0.1518545 0.030150041 -0.072733045 -0.021510229 -0.13199554 -0.23067537
-0.029171608 0.01940526 -0.08571091 -0.07510211 0.11838935 0.04990694 0.06687915 -0.26685414
-0.19522248 -0.27812594 -0.26787037 -0.0012774765 -0.28433385 0.02400349 -0.10481197 -0.20719106
0.05884573 -0.31955856 0.09031637 -0.10142858 0.087529376 -0.11883944 -0.24288122 0.03463103
0.07534619 0.11605928 0.03703627 -0.07779991 -0.20153902 0.050260723 -0.12760346 -0.026863664
-0.086947836 0.07931192 -0.1979013 0.04763709 -0.06764145 -0.2842772 -0.08656639 -0.06987235
-0.11913567 -0.047659084 0.020256028 0.049897328 0.036827207 0.07836898 -0.29094335 -0.08900121
0.110179484 0.04984717 0.047497466 -0.10722671 0.120004475 -0.32262367 0.1029108 -0.10228786
-0.024582073 0.052559376 -0.091358416 0.2803546 0.23267755 0.078468874 -0.28636834 0.07873333
-0.07172935 0.095218614 -0.04808484 0.2071124 0.18947117 -0.41841295 0.0879827 -0.048667565

internal.FC3.bias f4 [10]
00000000: 380a b0bd f0ff 833d 4fa6 c23e 725d abbe
00000010: cf58 f23d 539e 163e d683 a7bd b651 00be
00000020: 3783 e83e 9160 023f
-0.08595699 0.064453006 0.38017508 -0.3346973 0.11833345 0.14708833 -0.081794426 -0.1253117
0.4541261 0.509286

FC1.weight f4 [1, 10]
00000000: 6983 0cbd b42d 6a3b eeb8 e43e a00d 633e
00000010: 3e8f 4a3d e4b3 72bf 6279 5dbe 5af1 55be
00000020: 13c3 153f 93c8 823f
-0.03430501 0.0035732808 0.4467234 0.22173166 0.049453013 -0.9480574 -0.21628335 -0.2089285
0.58500785 1.021746

FC2.weight f4 [1, 10]
00000000: 0edb 83bc afe5 56bd 934e c3be 7f1e 80bc
00000010: 333f 08bf ea81 44be 1297 6e3e 0975 033e
00000020: 2d86 c7be 381a cdbc
-0.016095664 -0.052465137 -0.38145885 -0.015639542 -0.53221434 -0.19190183 0.23299816 0.12837614
-0.38969555 -0.025036916
